public/models/mnist_Net1_v10.onnx (onnx, 623830 bytes, 4 tensors)

model.1.bias f4 [196]
00000000: b4e6 6d3d a09d 45bc 8923 ecbd d2d5 5ebe
00000010: 0087 93bb c41b debd 091a b73d bc1a 03be
00000020: 7f59 fe3d 6136 c8bd 700b 22be 5898 cabd
00000030: 1549 d43d 6dbc 0b3e 9760 313d 57ff ea3c
00000040: f38c 063e a688 a4bd 3613 d03c aa65 d639
00000050: 859d 8f3c f5fd 07be 8d4e 193e 93d8 ffbc
00000060: d243 f43d f813 093a f629 b33d 9145 1a3e
00000070: 0253 e4bd 4660 01be 09a3 863c e0e0 9cbc
00000080: d06d 48be d6a6 c53d fb83 953d a361 0bbd
00000090: debd 00be 6a82 1ebd 233e 0c3e 27c1 7dbd
000000a0: 98cb 94bd d874 ac3c 81ae 3f3e a83d 39b9
000000b0: fa07 5b3a 02c1 95bc 288c 213d 05c7 3bbd
000000c0: c9e3 dd3d 1296 f9bd cf2c 97bd f43a 1fbe
000000d0: e3cb 11bd 1183 41bc 5d0f 36bc be98 cb3d
000000e0: fa90 f63c 2373 833d 8be0 733c e0b4 0c3e
000000f0: 1ca0 0abd 7def 16be b6a5 0fbe 1dd3 5c3d
00000100: e70f bebd ed9c 083e dcfa 2f3e 19ef 623d
00000110: f6c7 3a3e 1745 133d 1dd0 683d 3574 cc3d
00000120: 6f4d e2bc 9c12 bfbc 5b35 8dbc b170 953d
00000130: 91e3 94bc fe71 5abd 89d1 b23d b2b4 393b
00000140: 5aa7 3dbe ea21 15be f375 8e3c 5e1d aebb
00000150: e513 c2bd 215a 1a3d 03ac 853d fe87 88bd
00000160: 4aed 683d 1957 1abe b128 0ebd 1433 49bd
00000170: fc9d 713e 15ca 253e a346 8cbd ea28 3b3d
00000180: f41d ffbd 461d 813c de09 003e 6f17 a6bd
00000190: 6a22 883d dede 1fbd 9e1b 133e e6ee dd3d
000001a0: b601 8b3c 12a3 2f3e f27d 9e3d 8571 243d
000001b0: 40db b0bd 97f4 00bd 1bb8 e23d 5d0d e5bd
000001c0: bb98 6c3b a879 023d 5ef2 dd3d 2f20 94ba
000001d0: 0223 433e f10c 303e bc8c 4c3e 78ed d6bd
000001e0: 1da8 dabd 6cd2 11be b2d2 97bd b5cc 5f3e
000001f0: df2c 953d e054 74b9 415f 1e3e 48d5 a13b
00000200: 4f80 bc3d 5c8e 053e 76ff 23bc 2272 f8bc
00000210: 18b4 8dbc 2db6 23be 8c52 d63c d1d1 253e
00000220: 7d0e e8bd afb2 b4bc da54 2ebe ac6a bbbd
00000230: 5d39 0a3d d2fd 96bd 2185 b7bc 1e4e f73d
00000240: 8e0a 4a3e cad4 f03d a8ce 993b c3b5 2f3e
00000250: 990f 81bd c266 35bd 95a2 133e ec99 433e
00000260: 9408 523d 635d 74bc b71f 0b3e 821d 363d
00000270: 8126 f1bd 27b3 b03c ec3c 893e 5b59 e93d
00000280: 0081 f63d 9955 39bb 869a 8fbc 892d ca3c
00000290: 31b7 ac3d 8800 12be e77a d23d 2355 8cbd
000002a0: a99f 93bc e9bd eabd fb31 d9bc b198 a13d
000002b0: 7710 07be 841a 383d ba88 6b3c f0eb 203e
000002c0: 1f2e be3d 9a42 0cbc d6ca e33d b093 14be
000002d0: af16 153d 79bb 923c bebe e5bb 82c8 aabc
000002e0: 71ff 0d3e 5e1a 12be 34bb 63bd 7557 0cbe
000002f0: 60f6 1d3e 5b89 52bd 90ae fc3d 3529 2a3e
00000300: 4e84 043d 938c 7ebd b6d0 d13c 6682 463d
0.058081344 -0.0120615065 -0.11530215 -0.21761253 -0.0045021772 -0.108451396 0.08940513 -0.12803167
0.12419414 -0.09775997 -0.15824676 -0.098923385 0.10365502 0.13646097 0.043305006 0.028686209
0.13139705 -0.08033876 0.025399785 0.00040893006 0.017531166 -0.1328047 0.14971371 -0.0312312
0.11926998 0.0005229111 0.08748238 0.150656 -0.11148645 -0.12634382 0.016435163 -0.019150198
-0.1957314 0.09650962 0.07300564 -0.03402866 -0.12572429 -0.03869859 0.13695578 -0.061951783
-0.07265395 0.02105181 0.18718912 -0.00017665944 0.00083553756 -0.01828051 0.039440304 -0.045844097
0.10834462 -0.12186827 -0.073815934 -0.15549833 -0.035594832 -0.011811034 -0.011112061 0.09941243
0.030098427 0.06418445 0.014885078 0.13740873 -0.0338441 -0.14739795 -0.14028057 0.05391227
-0.09280377 0.13341112 0.17185539 0.055403803 0.18240342 0.03595456 0.056839097 0.09983102
-0.027624814 -0.023324303 -0.017237356 0.07296885 -0.018174918 -0.053331368 0.08731372 0.0028336463
-0.18520871 -0.14563718 0.017390227 -0.0053135594 -0.09476451 0.03768361 0.06526949 -0.066665635
0.05686692 -0.15072288 -0.034706775 -0.049120978 0.23595423 0.1619037 -0.068494104 0.045693316
-0.12456885 0.015761029 0.12503764 -0.08109938 0.06647189 -0.039030902 0.14366004 0.10836582
0.01696859 0.1715205 0.07738866 0.040147323 -0.086355686 -0.03148326 0.110702716 -0.111841895
0.0036101777 0.0318543 0.108372435 -0.0011301095 0.19056323 0.17192437 0.19975561 -0.10494512
-0.10676596 -0.14240426 -0.07413234 0.21855433 0.07283949 -0.00023301272 0.15466024 0.004938755
0.092041604 0.13042587 -0.010009637 -0.03032786 -0.01729779 -0.15987463 0.026162408 0.1619332
-0.113308884 -0.02205786 -0.17024556 -0.091512054 0.033746112 -0.07372631 -0.022402348 0.120754465
0.19730589 0.11759336 0.004693825 0.1715918 -0.06301803 -0.04428745 0.14417489 0.19101685
0.051277712 -0.014914843 0.13586317 0.044461735 -0.11774922 0.021569801 0.26804292 0.11393996
0.120363235 -0.002827978 -0.017529737 0.024679916 0.084333785 -0.14258015 0.10277348 -0.06852176
-0.018020468 -0.11462004 -0.02651309 0.07890452 -0.13189875 0.044947162 0.01437586 0.15715003
0.09286141 -0.008560801 0.11122672 -0.14509463 0.036398586 0.01791166 -0.0070112636 -0.020847563
0.13866974 -0.14267871 -0.055598453 -0.13705237 0.15426016 -0.051400524 0.12337983 0.16617282
0.032352738 -0.06214578 0.025612216 0.0484642

model.1.weight f4 [196, 784]
00000000: 20ab 7e3c 20b1 fd3a b456 423c 8876 db3b
00000010: 6708 07bd d02e 8abb ee01 f03c 90e3 9d3b
00000020: da7c f3bc d89c 153c 8c67 d03c e445 2a3c
00000030: 3c99 003c a7d4 99bc 32ed 143d cf91 033d
00000040: dc70 0fbc 03b3 aebc 4ee9 ccbc 818f 083d
00000050: 2adf 9d3c 328d 4fbc e4fa 123c 7aa3 b1bc
00000060: f014 7f3c c0c8 a03a fcd8 6d3c c612 20bc
00000070: f86a 4b3c f024 98bb 263f 51bc 6a4f 65bc
00000080: 84ae a3bb 3bb1 143c e1dd 583c 6818 803c
00000090: 6575 42bb 8cd3 1dbd 3edd 1fbc 03d7 24bd
000000a0: fc5f 03bd 0fbb 42bd 38ff c93c e08c a93d
000000b0: 10b6 d23c 082d 57bc b301 54bc ccba 9039
000000c0: 8575 9cbc 998f 963b 7b73 183d 603c b03d
000000d0: 80f3 73bb 08dc d73c b8fb 8fbb ce3e d63c
000000e0: 3ed6 dd3c 6ebf 01bc 2219 1f3c 620c 883d
000000f0: ea19 f5bc 6ca8 30bd 0fdb 1a3b 8d8d debc
00000100: b16c 33bd f43f 88bd 1c7f b1bd 82a1 9abd
00000110: c50e 30bd 3281 273c 7e39 fa3c 7c7c 313d
00000120: 77cf 3cbd 475c f8bd 6096 09be 534a 07be
00000130: c553 b8bd 76ab bdbd fd18 a8bc 434e 153c
00000140: e825 30bd 5ab0 f8ba ceab e63c 48fb 8f3b
00000150: 0491 5c3c 3ca2 1d3c f05c 573d 9d19 6d3d
00000160: dd02 e6bb 0468 98bd 354e 62bc 2022 93bc
00000170: c812 debd 5b93 f5bd 186c 00be ba92 32be
00000180: 641a 16be b78d 6abd a7f6 debc 0932 a3bb
00000190: 61f4 a3bd 14ca 38be acb3 2abe b91f 39be
000001a0: 7e60 0fbe 3399 1cbe bb2f 94bd b874 04be
000001b0: c655 bebd e8f2 433d 9743 bdbc 8fc7 07bd
000001c0: 00f4 21b8 a784 6dbc ddaf 353d 5baa 153d
000001d0: 6037 2bbd 4d31 f0bd 1593 bfbd 646c 28be
000001e0: 0b06 28be f878 4ebe 4dfb 8ebd 22b6 85bd
000001f0: cfa7 e6bd 0b1b c6bd 5f9b b2bd 812d 2cbe
00000200: a237 35be bfdb 12be 3e40 23be 6baf c6bd
00000210: 9145 0cbe ead2 adbd 203a a5bd 643d 20bd
00000220: 1824 70bd a95b b9bb eba0 253d a147 313c
00000230: 7c98 da3c d2b2 4cbc ce60 c5bb 0cbc 1f3d
00000240: 76d0 c4bd 82c7 40be 9b34 55be d5e8 24be
00000250: 10ff 25be 435d 43be 4a61 25be 3402 aebd
00000260: 9c3d 1dbe 36ca 33be d5c1 51be 0bd6 8cbe
00000270: b23e 98be 61e1 75be 031b 42be c2ab b2bd
00000280: d16b 18be e530 02be 9ae2 03be 88c9 2fbe
00000290: b359 cfbd d6af 47bd b86b 443d 9df7 263d
000002a0: 6a8f 73bc 2818 ee3b 0dca babb 8275 ba3c
000002b0: 4bc8 bcbd 7083 e2bd fe68 cebd 8c65 17be
000002c0: 2994 06be 0d79 0dbe abce 19bd 05e5 143d
000002d0: d850 e93c b28a 7b3d 8730 153e f929 bb3d
000002e0: 4d8e 213d f806 723d 6f25 be3d 8233 323d
000002f0: 8122 09bd 0dbf 59bd 2e5f 8abe f657 97be
00000300: 8648 71be 8820 12be 0385 10bd 3811 a13c
00000310: 8de5 263d 48fc 9c3c feac 52bc a63e 5f3d
00000320: 11a2 d1bd f3bf f9bd 1725 cdbd c0a8 0cbe
00000330: c0d6 e9bd a2ca 88bd 4d11 b2bb 8df6 ff3d
00000340: fe1b 5c3e cff5 4d3e c73f 8b3e 03b9 8f3e
00000350: 47bd 873e 3b1d 4c3e 8309 503e 73ee cf3d
00000360: f214 8a3d e4e5 15bd bb28 17be ad5f 7fbe
00000370: a11c 90be 06c8 37be dc73 b7bd c8e8 81bc
00000380: e7f4 e6bc 397a 013d 1a79 51bb 16ff 2cbb
00000390: 7aeb 9ebd c00d 62bd 31fb 82bd 052d c0bc
000003a0: 1cdd 37bb c56a ff3b 22a8 a83c 9dbf fa3d
000003b0: a6e0 063e 3bf5 323e 9fe0 8d3e c119 843e
000003c0: 6ffe 393e 83e9 133e bb5f e83d 9895 9a3b
000003d0: 03b9 3abd 2243 58bd 5069 16be d91c 15be
000003e0: 97f0 40be 4f76 51be 69a7 0ebe d276 d2bc
000003f0: f180 603b 71d1 653d af1e cfbc 2142 143c
0.015543729 0.0019355156 0.011861492 0.0066974796 -0.032966997 -0.0042170063 0.029297795 0.0048183873
-0.02972262 0.009131633 0.02544 0.01039264 0.007849034 -0.018778158 0.03635902 0.032121476
-0.008754935 -0.021325594 -0.025013592 0.03333998 0.019271452 -0.012667941 0.00897095 -0.021684397
0.015568957 0.0012266859 0.014517065 -0.009770101 0.01241564 -0.004643075 -0.012771403 -0.013995985
-0.004995169 0.009075458 0.013236494 0.015636638 -0.0029672023 -0.038531825 -0.009757338 -0.040244114
-0.03207396 -0.047541674 0.02465783 0.08278823 0.02572158 -0.013133295 -0.012939858 0.00027604995
-0.019099006 0.004594755 0.037219506 0.086052656 -0.0037223995 0.026350036 -0.004394021 0.026152994
0.027079698 -0.007919176 0.009710582 0.06642987 -0.029919583 -0.04312937 0.0023629104 -0.027167106
-0.043804828 -0.06652823 -0.08666822 -0.075503364 -0.042982835 0.010223674 0.030544993 0.04333161
-0.04609629 -0.121269755 -0.1343627 -0.13211946 -0.09000353 -0.09261219 -0.020519728 0.009112897
-0.0430049 -0.0018973455 0.028158095 0.0043939687 0.013462309 0.009621199 0.052578866 0.057885755
-0.0070193843 -0.074417144 -0.013812591 -0.017960608 -0.10843426 -0.119909965 -0.12541234 -0.17438784
-0.14658505 -0.057264056 -0.027217222 -0.00498033 -0.08005596 -0.18045837 -0.16670102 -0.18078507
-0.14001653 -0.15292816 -0.07235666 -0.1293515 -0.09293704 0.047839075 -0.023103518 -0.0331493
-3.8612634e-05 -0.014496959 0.04435717 0.036539417 -0.041800857 -0.117281534 -0.093542255 -0.16447598
-0.16408555 -0.20163333 -0.069815256 -0.0652888 -0.11262476 -0.09673127 -0.08721041 -0.16814233
-0.17697003 -0.14341639 -0.15942475 -0.09701427 -0.13698412 -0.08487494 -0.08067727 -0.039121047
-0.05862817 -0.0056566787 0.040436666 0.0108203 0.026684038 -0.012493806 -0.006023503 0.038997695
-0.09610073 -0.18826106 -0.20820849 -0.16104443 -0.1621058 -0.19078545 -0.16150394 -0.08496514
-0.15355533 -0.17557606 -0.20484097 -0.27507052 -0.29735333 -0.24011756 -0.18955617 -0.087241665
-0.14884879 -0.12713964 -0.1287941 -0.17166722 -0.10124531 -0.048751675 0.04795429 0.040763486
-0.014865736 0.0072660632 -0.005700356 0.02276111 -0.0921789 -0.11060226 -0.100786194 -0.14784831
-0.13142456 -0.13815708 -0.03755061 0.036351223 0.028480932 0.061411567 0.14569293 0.09138865
0.03944235 0.059088677 0.09284484 0.043506153 -0.03348017 -0.053160716 -0.2702574 -0.29559296
-0.23562822 -0.14270222 -0.0352831 0.01966153 0.04074626 0.019163266 -0.012858627 0.054503106
-0.1023599 -0.121948145 -0.1001684 -0.13736248 -0.114179134 -0.06679274 -0.0054341913 0.12498198
0.21495053 0.201133 0.27197096 0.2807084 0.26511595 0.19933026 0.20316128 0.101529025
0.06742276 -0.036596194 -0.14761631 -0.24938841 -0.28146842 -0.17947397 -0.08957645 -0.015858069
-0.02819295 0.0316107 -0.0031963051 -0.002639716 -0.07759757 -0.055188894 -0.06395567 -0.023458967
-0.0028055375 0.0077947103 0.020587984 0.122435786 0.13171634 0.1747636 0.27710435 0.258009
0.18163465 0.14444546 0.11346384 0.00471754 -0.045586597 -0.052798398 -0.14688611 -0.14561786
-0.18841778 -0.20455287 -0.1393105 -0.025691424 0.0034256543 0.056107942 -0.025283186 0.0090489695

model.3.bias f4 [10]
00000000: 1532 ccbc 9f8c c2bd e1cc d03d 2115 2fbd
00000010: 11f2 b6bc c7cc 6b3d 8054 a2bd 0f55 ea3c
00000020: d26a 8bbc 97db 843d
-0.024926225 -0.094994776 0.101953276 -0.04274476 -0.022332223 0.057568338 -0.07926273 0.028605012
-0.01701871 0.06487196

model.3.weight f4 [10, 196]
00000000: 195a 8bbe 671f b5be 2379 163e abfc d43d
00000010: f653 0cbe a842 373e bede 0ebe 8246 c03d
00000020: 6f38 9dbe db1f 293e 68a0 89be 663d a4be
00000030: 6926 85be e9c7 653e b232 bcbe 0f4a 413c
00000040: 77dc b6bd c696 eebd 1932 9fbe f799 3dbe
00000050: 215a d1be 0d71 3e3e 15e3 bbbd 3c35 a8be
00000060: 8e87 81be aa12 b7be 39e9 cfbe c3e7 2dbe
00000070: 89b0 95be 59ac 053e 9c39 8b3e 1220 84be
00000080: 65c7 7bbe 731c d1be 8943 763e 2863 5d3e
00000090: febb 80be bcfd 003e ab6e 5ebe bd3f 8a3e
000000a0: 8a17 18be 005a 233e f555 8fbe 7be6 ea3d
000000b0: 7cf6 8fbe f584 233e 54bd 673e 9f00 95be
000000c0: 55b2 7c3e 7a2f a6be 42a8 ff3d 7747 7fbe
000000d0: f58e 503e e7ed 3e3e b800 183e c5d2 b9be
000000e0: ef7a 5d3e 386e cebe ceb1 7abe 5e99 eb3d
000000f0: da16 38bd 220e 5d3e 1bba 583e cef1 adbe
00000100: b91a 233e 8772 a93e a62a 9ebe d0c6 b93d
00000110: a802 0dbd 84f8 653d 1e3e 813c 295c 4fbe
00000120: e8ec fb3d 45f1 5c3e 89b4 d7be 2d8c acbe
00000130: e430 ebbd b319 3d3e 5e73 313e 64cb 423e
00000140: e69b 2c3e aa2a 1e3e a967 97be 5883 2f3e
00000150: e621 1a3e 1b8c 37be 7f0d 883e efa3 2abe
00000160: c165 60be 2072 83be 7bef 0c3e 1523 81be
00000170: 804a 853d 8253 5d3e 5bef aebe c364 003e
00000180: 3d4c b6bd a1a5 c93c 10af 143e 0c23 253e
00000190: 8080 d6be 8f03 a8be d270 1f3e d2fa 8ebe
000001a0: 007d 26be d649 803e 9b0c 213d 6f06 3dbe
000001b0: 15a3 033e 65f5 24be df43 dfbc b6e2 9f3d
000001c0: 9149 703e df9f 903e 3241 89be 51f7 b1be
000001d0: 7e21 5b3e d590 84bc 923c 7e3e 2d3c cd3d
000001e0: 6fc7 053e 4463 0c3e adfd 433e 6caf c3be
000001f0: 720f bb3d c9a2 a3be a942 4fbe 0e4f a23d
00000200: 60b7 7dbe c3b5 37be 240b 593e eacf 133e
00000210: ef2c 90be 59a1 dd3d c54b b5be 8ed3 71be
00000220: f055 8ebe acf3 a6be 3f39 1a3e 02fe efbd
00000230: ab8c b7be 77c1 d03c 7eda a03e 9b56 ecbe
00000240: 6206 68be 078e 2a3e 7680 e83d ab2c 40be
00000250: 352b 503e 6054 86be 9499 55be 127b 8f3e
00000260: b0f7 523e f3fb 98bc c8f7 253e fdc1 023e
00000270: c7e3 223d 5334 5abe a990 8cbe 115b 983e
00000280: d7b0 40be deb2 a6be c9ae 873e 7db0 4abe
00000290: 99b4 e8bd 8347 1c3e 52f1 96be 4e0a 223e
000002a0: fd0e 1ebe 99a8 153e 12bf 413e d93c 393e
000002b0: dc71 373e e4ed 4a3e 8416 a5bd e6ff 823e
000002c0: 7dc7 5a3e 2045 4d3e 068e 4d3e 54c7 73be
000002d0: 9d73 773e 4e59 5c3e 66a9 bcbe ae57 bb3d
000002e0: 8c4d 66be e15d 58be 4f4f 7f3e a348 233e
000002f0: 8eb2 623e 3f94 4bbe 1374 a0be 5244 1dbe
00000300: 2a49 ea3d a5c9 a2be a72d dfbd da59 aabe
00000310: 7d24 253e 2bae 833b 170f 013e 38d6 80be
00000320: d89e 3e3e afd4 11be aa40 793e 7db1 81be
00000330: fce5 6d3e 0412 46be 086d 823d 3582 fcbb
00000340: e117 683e 2a6b a63d 80cb 523e 54ed 743c
00000350: 7796 9c3e 6272 263e b91c de3d 0144 fc3d
00000360: 64ef 5ebe 388f 6cbe bae7 833e 1c0a 643e
00000370: 77a3 1e3e 76e0 223e f465 633d 924c 26bd
00000380: 13b1 63be 3ec0 a0be f316 48be 0026 1d3e
00000390: 0013 0c3d aad1 993d b0f2 b23a 6d1c b83d
000003a0: 7298 30be ad62 253e a9dd 99be 33c1 64be
000003b0: 59dc 753e a1d0 453e 0f27 1e3e 3be1 dbbd
000003c0: 55b9 49be dd9d adbd adce 3fbe f888 de3d
000003d0: 4577 ffbd 64db c73d 5562 93bd 1b03 17bd
000003e0: 9cd1 2dbe 3d33 fdbd a611 68be 19d8 2e3e
000003f0: 6875 55be d78e 563e f257 ae3d 2f7e cf3d
-0.27217177 -0.3537552 0.14694647 0.10399755 -0.13703904 0.17896521 -0.13952157 0.09388448
-0.30707118 0.16516058 -0.26880193 -0.32078093 -0.26005867 0.22439541 -0.36757427 0.011797442
-0.08928769 -0.116498515 -0.3109291 -0.18515764 -0.40889075 0.18597813 -0.09174172 -0.32853115
-0.25298733 -0.35756427 -0.40607622 -0.16982941 -0.29236248 0.13054027 0.2719239 -0.25805718
-0.24587782 -0.40842018 0.240492 0.21619856 -0.25143427 0.12596792 -0.21721904 0.27001753
-0.1485273 0.15952301 -0.27995268 0.11469742 -0.2811774 0.15968688 0.22630817 -0.29102036
0.24677403 -0.32458097 0.124832645 -0.24929605 0.20367034 0.1864544 0.14844024 -0.36293617
0.21628927 -0.40318465 -0.2448189 0.11503862 -0.044943668 0.21587422 0.21164744 -0.33973545
0.15928163 0.3309519 -0.30891913 0.090711236 -0.03442636 0.056145206 0.01577669 -0.2025
0.12301046 0.21576412 -0.42129925 -0.33700696 -0.114839345 0.18466835 0.17329165 0.190229
0.16856346 0.15445963 -0.29571274 0.17139947 0.15051994 -0.1792454 0.26572797 -0.16664098
-0.21913816 -0.25673008 0.1376323 -0.25222078 0.0650835 0.21613887 -0.3416699 0.12538438
-0.0890126 0.02461511 0.14519906 0.1612665 -0.41894913 -0.32815215 0.15570381 -0.27925736
-0.16258621 0.25056332 0.039318662 -0.18459485 0.1285518 -0.16109236 -0.027254043 0.078069136
0.23465563 0.28246972 -0.26807553 -0.34759 0.21399495 -0.016182343 0.24827793 0.10021243
0.13064359 0.13709742 0.19139738 -0.38219774 0.09133805 -0.31960133 -0.20240273 0.07925235
-0.24776983 -0.1794043 0.21195656 0.14434782 -0.28159282 0.1082179 -0.3540937 -0.23615858
-0.2779994 -0.32607782 0.150609 -0.1171837 -0.3584951 0.025482876 0.31416696 -0.46159825
-0.22658685 0.16655742 0.11352627 -0.1876704 0.20328982 -0.26236248 -0.20859367 0.28023583
0.20602298 -0.018674826 0.16207802 0.12769313 0.039768007 -0.21309023 -0.27454117 0.29756978
-0.18817459 -0.3255834 0.26500538 -0.19793887 -0.11362571 0.15261655 -0.29480988 0.15824243
-0.15435405 0.14615096 0.18920544 0.18089618 0.17914528 0.1981731 -0.08060935 0.2558586
0.21365161 0.200459 0.20073709 -0.23806506 0.24165197 0.21518442 -0.3684799 0.09147583
-0.2249052 -0.21129562 0.24932598 0.15945677 0.22138426 -0.1988077 -0.31338558 -0.15358093
0.11439736 -0.31794468 -0.10897379 -0.33271676 0.161272 0.004018565 0.12603413 -0.25163436
0.18615282 -0.14241289 0.24341074 -0.25330725 0.23232263 -0.1934281 0.06368452 -0.0077059516
0.22665359 0.08125909 0.20585442 0.014949162 0.30583546 0.16254571 0.10845322 0.12317658
-0.21771008 -0.23101509 0.2576273 0.22269481 0.15492044 0.15905938 0.055517152 -0.040600367
-0.22235517 -0.3139667 -0.19540004 0.15346527 0.034197807 0.07510693 0.0013652649 0.08989797
-0.17245653 0.16150923 -0.30051926 -0.22339325 0.24009837 0.19317867 0.15444587 -0.10736319
-0.19699605 -0.08477376 -0.18731184 0.108659685 -0.12473921 0.09758642 -0.0719649 -0.036868196
-0.16974491 -0.123632886 -0.22662982 0.17074622 -0.20845568 0.20952927 0.08512868 0.101314895
